LeNet.pth (torch, 250460 bytes, 10 tensors)

LeNet_layers.0.weight f4 [6, 1, 5, 5]
000000 ba 72 d8 3d 1a f1 b4 bd c0 fa 17 bb 20 cb 37 be
       0.10568757 -0.08835049 -0.002319023 -0.1794858
000010 e0 6d df bd ae fb 18 be aa 27 3f be 30 f8 db 3c
       -0.10909629 -0.14939758 -0.18667474 0.026851743
000020 56 7b a5 3d c7 23 22 3e 40 b2 63 bd f1 ce 39 3e
       0.08080165 0.1583396 -0.055589914 0.18145348
000030 4b aa 27 3e 0a ee 1d be 02 6c 0b be 75 87 0b 3e
       0.16373555 -0.15422836 -0.1361542 0.13625892
000040 01 83 24 3e 27 96 33 be 30 c7 0b 3c 39 3c 12 3e
       0.16065599 -0.17537747 0.008531377 0.14280786
000050 89 4f 3b 3e 06 49 0a be 14 53 7e bd a0 b4 34 3d
       0.18292059 -0.13504419 -0.06209095 0.04411757
000060 9a 1e 9e 3d 72 34 d6 3d 40 cf ca bc ef 89 1b 3e
       0.077206805 0.10459222 -0.024757028 0.15189336
000070 80 d9 2c 3d 58 cc 27 bd 18 f7 ec bc 14 b5 40 3d
       0.04219961 -0.04096636 -0.028926417 0.04704769
000080 00 ad a4 3b 66 5a b8 3d cd 35 f7 bd 05 8a 02 be
       0.005025506 0.09001617 -0.120708086 -0.12747963
000090 4b 94 00 3e cb 10 25 be 12 49 e7 3d f0 08 eb bc
       0.1255657 -0.16119687 0.11293234 -0.028690785
0000a0 32 94 35 be 67 14 dd bd d3 a7 28 3e 80 95 06 bb
       -0.17732313 -0.10794907 0.1647027 -0.0020535886
0000b0 8c 23 22 bd 58 dc 8d bc b5 16 17 be 18 56 bc 3c
       -0.03958468 -0.017316982 -0.14754756 0.022990271
0000c0 80 a2 2d 3d cc a1 70 3d f2 14 ce 3d fd e1 36 be
       0.0423913 0.05874805 0.10062589 -0.17859645
0000d0 b0 85 39 be 50 ed bc 3c 8d 55 2e be 52 db e0 3d
       -0.18117404 0.023062378 -0.17024823 0.10979332
0000e0 49 24 29 3e 54 68 79 3d 00 d4 5b bb 95 7a 2c be
       0.16517748 0.06089051 -0.003354311 -0.16843636
0000f0 c0 08 ca bb 59 f2 37 3e 32 24 b6 3d da 2c ab bd
       -0.006165594 0.17963542 0.088936225 -0.08358164
000100 a0 73 a2 3b 8d cd 46 be 68 4d f0 bc ca e9 96 3d
       0.004957631 -0.19414349 -0.029333785 0.073688105
000110 00 d3 b6 3c b3 05 10 be 9a ba 8d 3d 52 ac ea 3d
       0.02231741 -0.14064674 0.06920357 0.11458649
000120 00 07 ae 3a 4c 95 4c bd 1e b4 85 3d 80 43 1d 3c
       0.0013277233 -0.049947068 0.06528495 0.009598613
000130 c6 e6 9e 3d b0 a7 58 3c f4 5b 44 bd 7d 73 05 3e
       0.0775886 0.013223574 -0.047939256 0.13032337
000140 c5 75 02 be 36 b4 0c be 90 32 dc 3c ed bf 3d 3e
       -0.12740238 -0.1374062 0.026879579 0.18530245
000150 5e 90 d1 3d bb 34 01 3e b4 73 90 bd 80 e5 ef 3a
       0.10232614 0.12617771 -0.070533186 0.0018302649
000160 ad eb 9b bd 69 76 48 3e 67 1b 35 3e 6d 12 bb bd
       -0.07613311 0.1957642 0.17686234 -0.09134374
000170 5a a5 a2 bd 20 db 45 bc 97 43 38 be c4 84 7e 3d
       -0.079416946 -0.012076169 -0.17994533 0.062138334
000180 9d f1 1d 3e d0 90 c8 bc ad 26 21 3e 98 4a d2 bc
       0.154242 -0.024483114 0.1573741 -0.025670335
000190 e5 a7 36 3e d1 09 24 3e e7 28 d7 bd 98 05 be 3c
       0.17837484 0.1601937 -0.105058484 0.023196027
0001a0 08 ea 0b bd 00 24 03 be 48 ab 1a 3d e6 e8 96 3d
       -0.034158736 -0.12806702 0.037761003 0.073686406
0001b0 d6 db 89 3d d0 b9 38 be 37 cc 04 3e 58 67 23 be
       0.067313835 -0.18039632 0.12968527 -0.15957391
0001c0 52 22 10 be e2 9b fd 3d 60 77 e2 bb 2d 78 3c 3e
       -0.14075592 0.12383248 -0.0069112033 0.18405218
0001d0 aa c0 40 be 74 60 30 bd 8d ac b2 bd a0 75 b6 3b
       -0.18823496 -0.043060735 -0.08724318 0.005568221
0001e0 6d 95 f8 bd 18 5c be 3c 8a a2 94 bd 6d 43 f4 bd
       -0.12137876 0.023237273 -0.07257564 -0.11926923
0001f0 78 24 3e 3d 66 7b c0 3d 73 25 b1 bd 30 6a 47 3c
       0.046421498 0.093985364 -0.08649721 0.012171313
000200 96 ba 9a 3d 8d 14 05 3e 4e 45 b0 3d 10 1e 06 be
       0.0755512 0.12996121 0.08606969 -0.13097405
000210 48 95 03 bd 67 0a 3c be 0b b3 20 3e d1 4b 44 3e
       -0.032124788 -0.18363343 0.156933 0.19169547
000220 40 b4 a6 3c 80 b5 13 bd ea b5 2e be 90 1f 93 bd
       0.020349622 -0.036061764 -0.17061582 -0.071837544
000230 06 80 ed 3d f6 5c 16 be d0 e4 2f be 00 f0 d0 3c
       0.11596684 -0.146839 -0.17177129 0.025505066
000240 53 c4 3f 3e 32 6d db 3d 20 85 f0 bd ea eb 98 bd
       0.18727235 0.10714187 -0.117441416 -0.07466872
000250 34 6b 84 bd 90 d6 d6 3c
       -0.0646576 0.026225358

LeNet_layers.0.bias f4 [6]
000000 ba 44 b2 3d 55 0e 4b be 9c 5b 0b be 99 2f 34 3e
       0.08704515 -0.19829686 -0.13609165 0.17596282
000010 b7 c0 d7 bd b8 63 18 bd
       -0.10534804 -0.037204474

LeNet_layers.3.weight f4 [16, 6, 5, 5]
000000 1a 57 0d 3d b0 28 f2 bb b4 7f a3 3c e0 b0 06 bb
       0.034506895 -0.0073901042 0.019958355 -0.0020552203
000010 40 c7 60 3d 40 4a 05 3c c6 d8 10 bd 60 c2 a2 3c
       0.05487752 0.008135378 -0.03536298 0.019868076
000020 d4 e9 80 bd 2c 1b 1d 3d cc da 60 bd 3e b5 79 bd
       -0.06294599 0.03835599 -0.05489616 -0.06096386
000030 70 00 42 bd c6 30 2c 3d 80 8b 67 ba 46 82 9f 3d
       -0.0473637 0.0420387 -0.0008832738 0.077885196
000040 e4 77 98 3c 46 d6 25 bd 9c c6 30 bd 6e 24 82 3d
       0.018611856 -0.04048755 -0.04315816 0.06354605
000050 b6 6c 27 3d 56 9b 07 3d 9e 6f 83 bd 30 b3 d3 3b
       0.04087516 0.033107124 -0.06417774 0.00646057
000060 29 9c 19 bd 90 5a 01 bd 20 c0 a6 bd a8 74 4a 3d
       -0.03750244 -0.031580508 -0.08142114 0.04942766
000070 dc ec 3e 3d b4 f0 34 3d 20 a8 f1 3c 60 76 53 3c
       0.046612605 0.044174865 0.029499114 0.012906641
000080 c8 40 cb bc 3e 91 28 3d ee d6 39 bd 02 90 91 bd
       -0.024811164 0.04115414 -0.04537099 -0.071075454
000090 e0 d2 68 bd 30 d9 cf bc bc 6e 92 3c 85 07 65 bd
       -0.05684173 -0.025372118 0.017875068 -0.055915374
0000a0 38 70 38 3d 3c 2f 1c 3d 38 72 09 bc 98 14 6b 3d
       0.045028895 0.038130984 -0.008389048 0.057392687
0000b0 44 34 80 bc 36 b8 43 bd dc 8c 7f 3d 04 7d 66 3d
       -0.015649922 -0.0477831 0.062390193 0.056271568
0000c0 4e 71 e4 bc 37 0c 65 bd a0 47 1d 3b c8 04 8d 3d
       -0.02788606 -0.055919852 0.002399899 0.068856776
0000d0 54 ec a8 3c f8 bc 38 3d 64 3b 3c 3d 34 9a 08 bd
       0.020620503 0.04510209 0.045955077 -0.033350185
0000e0 92 07 4f bd 60 5e 9a bd 20 a2 2d 3c 96 53 ad bc
       -0.05054433 -0.07537532 0.010597736 -0.021158021
0000f0 86 ad e6 bc 3f c2 a0 bd d0 47 fa bb c0 0f 6d bc
       -0.028158914 -0.078495495 -0.0076379552 -0.014469087
000100 34 d9 c0 3c d0 50 ca bb e4 86 8b 3d 64 eb be 3c
       0.02354107 -0.0061741844 0.06812838 0.023305602
000110 9b c6 67 bd 6a 78 98 3d cc 98 46 3d ee 54 8f bd
       -0.05658589 0.07444842 0.048485562 -0.06998621
000120 5c 31 32 3d 1c be f7 3c 3c f6 9a bd 88 ad 86 bc
       0.043504104 0.030242018 -0.07566497 -0.016440168
000130 ba ec ed bc 78 05 7c 3c 1b b5 7f bd 1e b7 02 3d
       -0.029043544 0.015382163 -0.062428575 0.031912915
000140 c0 7e 1f bc 48 19 35 3c 00 99 6f bd 54 01 ca 3c
       -0.009734809 0.011053391 -0.05849552 0.024658836
000150 08 96 46 3d 62 d6 8c 3d b4 1c a2 3d 7c 04 94 bd
       0.048482925 0.06876828 0.07915631 -0.07227418
000160 f2 20 a5 3d 60 28 dd bb db a8 37 bd 60 97 37 bb
       0.080629244 -0.006749198 -0.044838767 -0.002801381
000170 a7 8e 29 bd f0 fe 94 3d b0 68 2e bc 78 81 f6 bc
       -0.04139581 0.07275188 -0.010645077 -0.030091032
000180 40 31 8d 3b 96 e6 92 3d 06 e4 84 3d 56 e3 06 3d
       0.0043088496 0.07172887 0.064888045 0.03293165
000190 38 0f 14 3d 60 e4 f3 3c 50 f7 0b bd 1a 2f 55 bd
       0.036147326 0.029771984 -0.034171402 -0.052046873
0001a0 08 05 17 bd 00 d4 17 3b d8 6b d1 3c d0 39 73 3c
       -0.036870033 0.0023167133 0.02556412 0.014845327
0001b0 54 b3 a6 bd b2 9c a2 3d 00 8a 92 bd a2 04 46 bd
       -0.08139673 0.079400435 -0.07155228 -0.048344262
0001c0 b8 7a 5f bc ea 0c 89 bd a2 46 98 3d 50 d1 77 3d
       -0.013640098 -0.06691916 0.07435347 0.06050235
0001d0 de 7a 79 bd e7 55 88 bd 8f f8 53 bd ac 1f 60 3d
       -0.06090819 -0.066570096 -0.051750716 0.054717705
0001e0 50 01 6c bd bc c5 db 3c 3e 01 23 bd 7f e6 98 bd
       -0.05761844 0.026827686 -0.039796107 -0.07465839
0001f0 52 2d cc bc 2a aa 1c 3d 2a 0e c5 bc ba 8c 19 3d
       -0.024923954 0.03824822 -0.024054606 0.037487723
000200 37 c4 3a bd d4 7b ae 3c 08 41 43 3d a4 3f ec 3c
       -0.04559728 0.02129928 0.04766944 0.02883894
000210 40 87 39 bd 08 c5 20 3d f8 db 96 bd 80 0d bb 3c
       -0.045295 0.039250404 -0.073661745 0.022833586
000220 56 b8 3b bd e2 aa 59 bd e5 c8 76 bd a0 5b d0 3c
       -0.045830093 -0.053141482 -0.06025018 0.025434315
000230 7e a5 9b 3d ec 77 78 3d b8 7f 81 3c 1e 30 81 3d
       0.075999245 0.06066124 0.015807971 0.06308006
000240 b8 db 3d 3d c0 4f 97 3d 70 51 f5 3b fa 47 91 bd
       0.04635212 0.07388258 0.0074865147 -0.070938066
000250 14 98 0c 3d 08 16 c4 3c d0 6d f7 3c 70 35 65 3c
       0.03432472 0.023936287 0.03020373 0.013989791
000260 db 44 8d bd 53 b2 85 bd b8 27 3f bc 44 8c 94 3d
       -0.06897899 -0.06528153 -0.0116671845 0.07253316
000270 d0 0c 13 3d 80 2e a3 3d 24 df 45 3d 14 b3 a4 3d
       0.03590089 0.079678535 0.048308507 0.08041969
000280 c0 66 f4 ba e6 f0 2d bd 28 c7 7f 3c 5a 0e 5e bd
       -0.0018646345 -0.042466067 0.015611447 -0.054212905
000290 12 e1 00 3d fc 50 0a 3d d8 6c 14 bd 86 cc 2c 3d
       0.031464644 0.03376864 -0.036236614 0.042187236
0002a0 de 1a 8e 3d 78 fc f5 3c 2c 9d 8e 3d f8 7b 2e bc
       0.06938718 0.030027613 0.06963572 -0.010649674
0002b0 b0 11 3d 3d 58 14 e7 3c 2c 9e 71 bd e0 54 77 bb
       0.046159446 0.028207943 -0.058988735 -0.0037739798
0002c0 30 f3 4c bc 0a 78 9a bd c8 b4 09 3d b2 a5 0b 3d
       -0.012509152 -0.07542427 0.033619672 0.034093566
0002d0 f0 be 1c 3d 17 66 a1 bd 64 6a 9a bc 6c 10 40 3d
       0.03826803 -0.078808 -0.01884956 0.04689066
0002e0 b8 c3 1e 3d 28 fe b2 bc 76 0b 1a bd 61 4b 46 bd
       0.03876087 -0.021849707 -0.037608586 -0.04841173
0002f0 be 52 63 bd bc 8c 7d bd 68 1c be bc ff d0 9d bd
       -0.05549883 -0.061901793 -0.023206905 -0.077058785
000300 48 1e dc 3c cc f5 71 3d fe f7 20 bd 20 b2 4f bb
       0.026869908 0.0590723 -0.039299004 -0.0031691864
000310 04 a4 89 3d f4 c4 10 3d 4e fe 45 bd ea e1 59 bd
       0.067207366 0.03534408 -0.048338227 -0.053193964
000320 00 4a fb bb 3e c7 81 3d 12 4f 90 3d 1e c7 8d 3d
       -0.0076687336 0.063368306 0.070463315 0.06922744
000330 cc 1f f7 3c c7 7b 10 bd fe 0d 04 bd fe 78 57 bd
       0.03016653 -0.035274293 -0.032239906 -0.05260562
000340 54 77 73 bd cc d9 7b 3d d8 5b 83 bc 2c 6b 6b 3d
       -0.059439972 0.061487004 -0.016035005 0.057475254
000350 60 cd 5f 3b 00 5b cc ba 62 56 82 3d 96 d4 51 bd
       0.0034149513 -0.0015591085 0.063641325 -0.05122813
000360 58 0f 49 3c 34 65 71 3d ff 69 98 bd 42 09 dd bc
       0.012271725 0.058934405 -0.07442092 -0.026981954
000370 80 70 83 ba c8 42 5c 3d a2 a9 80 3d 60 9b 65 3b
       -0.0010028034 0.053774625 0.06282355 0.0035035238
000380 20 2f 6d 3d 39 6b 5c bd 00 9e cc bb f2 60 f5 bc
       0.05790627 -0.053813193 -0.006244421 -0.029953454
000390 1a 62 9b 3d c4 2f dc bc 2c 50 43 bd ec f7 42 3d
       0.07587071 -0.026878245 -0.04768388 0.047599718
0003a0 80 2c bb ba 04 45 63 bd d4 31 e1 bc a8 08 b7 3c
       -0.001428023 -0.05548574 -0.02748958 0.022342995
0003b0 00 6b b8 bb 44 8c fc 3c d0 a5 0f 3d b8 d7 a0 bc
       -0.00562799 0.030828603 0.03507024 -0.019634113
0003c0 74 a7 86 3c 3e ec 28 bd 6c 7e 78 bd 2a 72 0c 3d
       0.01643727 -0.041240923 -0.06066744 0.034288563
0003d0 6c cd 0f 3d c2 32 8d 3d 4c 74 d0 bc 76 6c 9d 3d
       0.035108015 0.06894447 -0.02544608 0.07686703
0003e0 10 68 65 bd 51 b9 40 bd b8 f8 73 bc 34 87 37 3d
       -0.056007445 -0.04705173 -0.014890842 0.044806674
0003f0 37 f7 89 bd 40 62 f3 3a e8 f9 89 3d b0 2d eb 3c
       -0.067366056 0.001856871 0.06737119 0.028708309

LeNet_layers.3.bias f4 [16]
000000 90 fd 9a bb d8 07 61 3d 08 d8 5a bc 92 5a a2 bd
       -0.004729934 0.05493912 -0.01335717 -0.07927431
000010 18 ed 3c 3c 06 b2 8c 3d 79 91 0a bd fc 49 95 3d
       0.011531137 0.06869893 -0.03383014 0.07289502
000020 48 dc 90 3c 5f 99 2a bd 71 5f 2e bd b8 7e b2 bc
       0.017683163 -0.041650172 -0.04257149 -0.02178894
000030 42 94 99 3d 10 2f 24 bd 3c ca 86 3c 19 65 10 bd
       0.07498981 -0.040083945 0.016453855 -0.035252664

LeNet_layers.7.weight f4 [120, 400]
000000 1d fa 12 bd c0 06 a4 ba 94 d0 4f bc e1 2c 16 3d
       -0.035883058 -0.0012514219 -0.012684006 0.036663894
000010 67 c8 d7 bc d2 e2 02 bd cc 71 7a 3c 98 1e ff 3b
       -0.026340676 -0.031954594 0.01528592 0.0077856295
000020 e4 b2 96 bc fd e9 be bc e2 f3 90 3c 32 f0 d6 3c
       -0.018395849 -0.023304934 0.017694417 0.02623758
000030 50 ee a3 3b 12 88 df 3c 8a 06 9a 3c 64 1d 61 3c
       0.0050027743 0.027286563 0.018801946 0.013739917
000040 ea 60 11 bd 49 b0 12 3d ca cc e9 3c 9d 62 fb bc
       -0.035492815 0.03581265 0.028540034 -0.03068667
000050 fb a2 0f 3d c1 3c 3c 3d b6 5c 17 bd 90 6f fc 3b
       0.03506754 0.045956377 -0.03695365 0.007703729
000060 dc e3 8e bc 1d 2c 43 bd b0 f3 18 bb b3 bb 19 bd
       -0.017442636 -0.04764949 -0.0023338608 -0.03753252
000070 f0 3c cb bc 6b 24 12 3d f0 ac 4c bd 0e 0d b2 3c
       -0.02480933 0.035679262 -0.049969614 0.02173474
000080 33 d5 42 3d b2 7a b6 3c 72 0f a2 3c 70 8b 1f bd
       0.047566604 0.022275303 0.019782756 -0.038951337
000090 ad 80 42 bd 40 c0 1c bd a7 34 02 3d ad 8a c7 bc
       -0.047485996 -0.03826928 0.031788494 -0.024358118
0000a0 50 ff c9 3b dc 84 8c bc ed 64 f1 bc 82 9c 87 3c
       0.006164469 -0.017153196 -0.02946707 0.01655412
0000b0 ac 38 6d 3c a3 c4 e5 bc 6b c1 46 3d 32 2a 35 bd
       0.014478844 -0.028047865 0.0485243 -0.044229694
0000c0 de 2b 08 bd 7f 79 1b 3d 3b e3 25 3d 6c f6 5e bc
       -0.03324496 0.037957665 0.040499907 -0.013608556
0000d0 07 e2 c8 bc da cc ee 3c 8a 0f a9 bc 2b 89 3a 3d
       -0.02452184 0.029150415 -0.020637292 0.04554097
0000e0 8a 89 de bc 50 32 93 3b 7e 5c d9 3c 2f 5c 40 bd
       -0.027165193 0.0044920817 0.026533362 -0.046962913
0000f0 80 77 23 3a 98 dc f5 3b 60 83 3c bc 39 11 37 3d
       0.00062357634 0.0075031035 -0.011505932 0.04469416
000100 5e 94 84 3c 2d 90 1f bd 00 e8 d2 ba 17 0c 1d 3d
       0.016184028 -0.038955856 -0.001609087 0.038341608
000110 79 9b 00 3d 60 02 9e bc 98 38 9c 3b 10 73 0d bd
       0.03139827 -0.019288242 0.0047674887 -0.03453356
000120 23 1c 1c 3d 5a 68 c0 bc e2 79 b3 3c 00 35 ee 3b
       0.03811277 -0.023487259 0.021908704 0.0072695017
000130 00 41 b0 3a 00 1d 86 3b 30 93 fc bc 68 8d c9 bb
       0.0013447106 0.0040928125 -0.030831903 -0.00615089
000140 d4 7a 8b bc 00 e8 9e 3a 86 3e f3 3c 00 e8 ac 37
       -0.017026342 0.0012123585 0.0296929 2.0612031e-05
000150 b4 ce 73 3c 99 f1 01 3d bb 1e 3f 3d e7 ef 0d 3d
       0.014880825 0.031724546 0.046660166 0.034652617
000160 b7 c2 3a bd 35 61 25 bd 9b 79 39 bd 6a bd 09 bd
       -0.04559585 -0.040375907 -0.045281988 -0.033627905
000170 b0 ba 34 bd 31 95 3c 3d 1a 53 a8 3c 41 3e 4c 3d
       -0.04412335 0.046040718 0.020547438 0.049864057
000180 98 8d dd bb cd 27 1c 3d 85 00 3d 3d 6d 3e 05 bd
       -0.006761264 0.038123894 0.046143074 -0.032530237
000190 19 e0 26 3d bb f2 2f 3d 10 26 88 bc 41 7b 44 3d
       0.04074106 0.042956095 -0.016619712 0.047969107
0001a0 86 04 01 bd f3 fd cd bc da 26 f1 3c 81 88 42 3d
       -0.031498455 -0.025145506 0.029437471 0.04749346
0001b0 1e 9c a1 3c e8 ef 36 3c 63 01 c5 bc 36 1a e4 3c
       0.019727763 0.011165597 -0.024048513 0.02784453
0001c0 b2 8c 80 3c 19 df 18 3d 63 48 27 3d e1 86 3b 3d
       0.015692089 0.037322138 0.040840518 0.045782927
0001d0 8a 71 82 bc 42 ed e0 3c 81 fd 1c 3d 56 9e 83 3c
       -0.01592328 0.027456883 0.038327698 0.016066711
0001e0 1a 91 36 bd 5a 99 c4 3c 60 08 c5 3a 35 7c 30 3d
       -0.044571973 0.023998905 0.0015032403 0.043087203
0001f0 27 0d d5 bc 80 e8 49 3b 12 8d 37 bd 40 fb 9c bb
       -0.026007248 0.0030808747 -0.04481227 -0.0047906935
000200 4c 32 73 bc 1d cb 18 3d 90 71 20 bd 2c e6 1e bc
       -0.014843535 0.03730308 -0.0391708 -0.009698432
000210 34 89 75 bc 00 83 f3 ba 1a 36 c3 3c 8e 3f 22 bd
       -0.014986325 -0.001857847 0.023829509 -0.03961139
000220 fb 31 3d bd 77 19 a2 bc 40 be 2d bd 74 0c 40 bc
       -0.046190243 -0.019787533 -0.042417765 -0.011721719
000230 94 15 14 3c d0 29 35 3b cc 44 55 3c b0 56 29 bd
       0.009038348 0.002764333 0.013016891 -0.041342437
000240 1b 07 18 bd 79 4a 19 3d 20 fd 02 bb cc 11 2e bc
       -0.03711615 0.03742454 -0.00199873 -0.01062436
000250 39 70 38 3d 46 7a 88 3c d0 dc 3b bb 94 28 61 bc
       0.0450289 0.016659867 -0.002866555 -0.013742585
000260 6d ec 2b 3d f0 33 a0 bb 00 b3 47 b9 99 86 05 3d
       0.04197352 -0.004889004 -0.00019044802 0.032599065
000270 a6 80 9b 3c 8f 46 1f 3d 80 a7 18 3c 9b 4e 48 bd
       0.018982243 0.03888565 0.009317279 -0.04890309
000280 80 d6 d4 bc 00 78 5a 3a 38 b3 16 bd 2d 7e 1a bd
       -0.025981188 0.00083339214 -0.03679201 -0.037717987
000290 5d 8a 1b bd 1d 86 ae bc 7d 30 e1 bc 56 27 c9 3c
       -0.03797375 -0.021304185 -0.027488941 0.02455489
0002a0 90 fb db bb 80 b4 13 3a c0 4e ee 3a 8c 71 0d bc
       -0.006713338 0.00056345016 0.0018181428 -0.008633029
0002b0 c0 42 8e ba a2 f7 2d bd de 7c bf 3c 40 b1 ca 3a
       -0.0010853633 -0.04247249 0.023374971 0.0015464202
0002c0 d6 c9 85 3c 2a 62 8a bc b4 1f 0a bd ad 1f a4 bc
       0.016331594 -0.016892511 -0.03372164 -0.020034635
0002d0 65 f0 3d bd fa 2a fe bc b8 11 0d 3c a8 0a 1b bd
       -0.046371836 -0.031026352 0.0086101815 -0.03785196
0002e0 77 f3 03 3d 96 bb 8d 3c da b9 85 bc 16 8e 0f bd
       0.032214608 0.017301362 -0.016323972 -0.035047613
0002f0 a4 33 6e 3c 94 03 49 3c 42 6f d4 3c fc 44 00 bd
       0.014538679 0.0122689195 0.025931958 -0.03131579
000300 f5 0f 3e bd 30 5f bc bc e1 4c 18 3d 3b 09 32 3d
       -0.046401937 -0.022994608 0.037182692 0.043465834
000310 a0 89 5c bc 98 41 06 3c 48 3d 54 bc b3 52 32 bd
       -0.013460547 0.00819435 -0.012954064 -0.0435359
000320 63 f7 2f bd 27 43 3a bd 10 04 ac 3b cc e9 04 bc
       -0.042960536 -0.045474198 0.0052495077 -0.008112382
000330 f0 22 c6 bb 38 79 23 3c 2a dc a3 bc 89 20 28 3d
       -0.0060466453 0.009977631 -0.020002443 0.041046653
000340 2d 8f fb bc b2 67 ff 3c 48 21 11 3c 65 06 06 3d
       -0.03070792 0.031177375 0.0088580325 0.032720942
000350 58 51 e3 3b ea 30 b7 3c e8 77 42 bc d8 88 37 3c
       0.006937187 0.022362191 -0.011869408 0.01120206
000360 b3 ab 33 3d fe f5 98 3c 89 fd 23 3d 87 d5 30 3d
       0.043864917 0.018671986 0.04003671 0.043172386
000370 cb d6 3b 3d f9 81 48 3d 73 8c 41 bd fa 66 e6 3c
       0.04585914 0.048952077 -0.047253083 0.028125275
000380 80 91 26 bd 51 11 24 3d 6c 02 40 3c 68 95 62 bc
       -0.040666103 0.040055577 0.011719327 -0.013829567
000390 dd 3d df bc 01 0d 4c 3d 88 0e 1e bd 67 0f 29 3d
       -0.027251178 0.04981709 -0.038588077 0.041274454
0003a0 25 71 10 bd 98 52 33 bc f4 b8 0b 3c 7a d8 cd 3c
       -0.035264153 -0.010944985 0.008527983 0.025127638
0003b0 e7 46 d6 bc 42 16 a2 3c 03 66 3d 3d fa b4 ce bc
       -0.026156856 0.019786004 0.046239864 -0.02523278
0003c0 f2 6b 16 bd cb 7b 35 bd 6d ac 2c 3d c3 8c 33 3d
       -0.03672404 -0.04430751 0.042156626 0.043835413
0003d0 52 ae a2 3c 4a 6a a7 3c 30 7c 53 3b 30 00 97 bb
       0.019858513 0.020436425 0.0032270066 -0.0046081766
0003e0 88 f2 37 3c 9d 94 c6 bc c3 c1 f8 bc 32 de da 3c
       0.011227258 -0.024240786 -0.03036583 0.02671728
0003f0 c1 b7 47 3d 1e da 15 bd 59 d8 1c 3d a0 72 c0 3a
       0.048759226 -0.036584966 0.038292263 0.0014682598

LeNet_layers.7.bias f4 [120]
000000 17 3a 07 3d 15 ba 3f bd e2 33 20 bd 6d 7b 4c bd
       0.033014383 -0.04680832 -0.03911198 -0.049922395
000010 a0 d4 35 3b f9 d1 2b 3d 88 22 4b bc 83 4a 14 bd
       0.0027745143 0.041948292 -0.01239837 -0.036203872
000020 37 45 2b 3d ad c1 c3 bc 8c 47 8e bc a2 5a e9 3c
       0.041814055 -0.023896063 -0.0173681 0.0284856
000030 18 d4 2c bd 9a 21 a9 bc d0 ed ce bb 63 7c fb bc
       -0.042194456 -0.020645905 -0.0063149706 -0.03069896
000040 05 61 3a 3d 40 65 f7 ba 80 4e 03 bc d0 fc d0 3b
       0.04550268 -0.0018874779 -0.008014321 0.006377794
000050 23 7d 2e bd 10 25 98 3b cd 1a 25 bd 73 c6 b5 bc
       -0.04259981 0.00464309 -0.040308762 -0.022189355
000060 99 28 2f 3d 40 3f e0 3a 6a 42 05 bd f0 a3 e6 3b
       0.042763326 0.0017108694 -0.03253404 0.007038586
000070 80 ed 2b ba 6b 49 48 bd 2b b8 18 bd 64 bb 51 3c
       -0.00065585226 -0.04889814 -0.03728501 0.012801025
000080 8e 9f c5 3c 57 5c ec bc 60 2c 6e bc fa 9c 94 bc
       0.024123933 -0.028852625 -0.014536947 -0.018141259
000090 32 c3 08 bd d3 52 42 3d 32 bb ec 3c c0 33 fd 3b
       -0.033389278 0.04744227 0.028897855 0.0077271163
0000a0 1d ca 29 bd 7d b3 31 bd 6a e1 aa bc c0 75 d6 bb
       -0.041452516 -0.043384064 -0.020859439 -0.0065447986
0000b0 a0 3a 93 3a 97 2e a1 bc 0f f1 41 3d 6d d2 17 3d
       0.0011232682 -0.019675536 0.047349032 0.037065912
0000c0 97 23 3b 3d 4a 4a 92 3c a9 65 12 3d 2a f7 c6 3c
       0.045688238 0.01785769 0.035741482 0.024287779
0000d0 74 06 79 3c d0 66 80 bb d0 3e 70 3b 06 47 b4 3c
       0.015199292 -0.003918506 0.0036658533 0.022006523
0000e0 7c 3b 61 3c 80 2d e1 bc ba a0 2a bd 14 98 0d 3c
       0.013747092 -0.027487516 -0.041657187 0.008642215
0000f0 c2 29 d3 3c 39 27 24 3d 30 a6 6b bb 00 88 3d 3b
       0.025776748 0.04007647 -0.003595721 0.0028920174
000100 26 cc 85 3c be 56 eb 3c c6 60 03 bd 1e 9e f1 3c
       0.016332697 0.028727885 -0.032074712 0.029494341
000110 1b 27 0a 3d 88 fe 69 bc b3 a8 29 3d 83 d8 ab bc
       0.0337287 -0.014281876 0.04142065 -0.020977264
000120 c8 aa 49 bc 1f 78 2e bd 2e 54 22 bd ad fe 2c bd
       -0.012308784 -0.042595025 -0.03963106 -0.042235065
000130 d6 4c 11 bd 53 a8 31 3d f0 7e d4 3b b2 21 a9 3c
       -0.035473667 0.043373417 0.0064848587 0.02064595
000140 20 4a 2c bd 5a 38 b3 bc 71 be 2f 3d 29 57 42 3d
       -0.04206288 -0.021877456 0.04290623 0.047446404
000150 0a 88 cd 3c 12 95 26 bd bf 48 33 bd 90 07 b5 bb
       0.025089283 -0.04066951 -0.043770548 -0.005524583
000160 3a 89 d2 3c 38 e0 60 bc b8 cd 29 bd 69 9c 28 3d
       0.0257002 -0.013725333 -0.041455954 0.04116479
000170 cd 5d 00 3d 8a 43 14 bd d8 96 af 3b ac 21 56 bc
       0.031339455 -0.036197223 0.005358558 -0.013069551
000180 b4 8f 3d 3c e8 6d ec 3b 00 d0 4a bd 33 ee 27 3d
       0.011569906 0.0072152503 -0.04951477 0.04099865
000190 2c b9 61 bc 68 a5 80 bb e3 9e fe bc 38 81 41 3c
       -0.013777059 -0.003925968 -0.031081622 0.011810593
0001a0 d2 47 df 3c a2 7f c8 3c e8 bc 91 bb 98 a0 c8 bb
       0.027255926 0.024474923 -0.004447568 -0.00612266
0001b0 ed 24 e2 bc d2 e7 f8 3c 08 85 09 bd 72 a3 1f bd
       -0.027605498 0.030383978 -0.033574134 -0.038974233
0001c0 97 4c c2 bc 00 d8 69 b8 d3 46 0f bd 7c c7 4d 3c
       -0.023718162 -5.5752695e-05 -0.034979653 0.012559768
0001d0 52 b6 00 bd 34 b4 7d bc 56 4f b5 3c db c1 11 3d
       -0.031423874 -0.015484858 0.022132557 0.035585266

LeNet_layers.9.weight f4 [84, 120]
000000 94 ec ad 3c 80 74 63 bd 7e fc 0e bd a5 a1 4f bd
       0.021230973 -0.055531025 -0.034908764 -0.050691266
000010 60 3c a4 bd f0 eb 80 3b 8d 88 68 bd c4 fe 73 3d
       -0.08019328 0.003934376 -0.05677085 0.059569135
000020 c0 32 11 3d 10 43 8a bd 88 61 4f 3d a8 2f 96 3d
       0.03544879 -0.067510724 0.050630122 0.073333085
000030 0e 43 91 3d 83 17 1d bd a0 82 b0 3b 18 7e 0e bc
       0.07092868 -0.0383525 0.0053866655 -0.008697055
000040 00 01 5b 3d dc 0f b0 bc 98 8c 3b bc a0 0a 25 3d
       0.05346775 -0.021491937 -0.011447094 0.040293336
000050 4b 04 7b bd 18 7b 44 3d 52 c2 86 bd 40 3f 0b bc
       -0.06128339 0.047968954 -0.065800324 -0.008498967
000060 ef 12 58 bd 60 06 7f bb 9c 01 80 3d b0 53 37 bc
       -0.05275243 -0.0038913712 0.06250307 -0.011189386
000070 71 fb 00 bd e8 d0 e8 bc 20 fa b4 3d a4 aa bb bc
       -0.031489793 -0.028419927 0.0883677 -0.022908516
000080 97 a5 21 bd 40 3b 58 3d 80 2d a9 ba a5 c6 6d bd
       -0.03946456 0.05279088 -0.0012907237 -0.05805077
000090 a5 78 5d bd 56 38 18 bd 94 7f a9 bd 97 e0 1f bd
       -0.054070134 -0.0371631 -0.08276287 -0.039032545
0000a0 00 b7 1c 3c 50 14 1d 3d 82 81 95 3d 8a 3d 93 3d
       0.009565115 0.03834945 0.07300092 0.07189472
0000b0 a4 05 a5 3c 38 4c c2 3c ac be de 3c ec 09 21 bd
       0.020144291 0.023717985 0.027190529 -0.039316103
0000c0 32 e1 5b bd c0 35 93 bb 80 72 8a bd e4 20 78 bd
       -0.05368156 -0.0044924915 -0.067601204 -0.060578242
0000d0 46 0b b6 bd 78 78 53 3d b4 7f 68 3d 98 a2 78 3c
       -0.08888869 0.05162856 0.056762412 0.015175484
0000e0 d2 2d 9e 3d c6 df 20 bd 6d 43 6f bd 50 aa a2 bd
       0.07723583 -0.039275907 -0.05841391 -0.07942641
0000f0 fe bb 06 3d e6 24 b9 bd b8 cc 3d bd ea 2c b7 bd
       0.032894127 -0.09040241 -0.046337813 -0.089441136
000100 58 8f b6 bc 6e b5 ae bd 29 12 60 bd 7e a0 41 bd
       -0.022285149 -0.08530699 -0.05470482 -0.047272198
000110 dc 28 60 3d ed 60 49 bd fc ef 21 3d 26 df 09 3d
       0.054726467 -0.0491647 0.039535508 0.033660077
000120 e0 c7 61 bc a9 a9 7f bd 13 fa 92 bd b0 66 53 bc
       -0.013780564 -0.06241766 -0.07176604 -0.012902901
000130 e6 a1 87 3d 36 d2 f0 bc 76 78 a9 3d 88 91 1a bc
       0.066226766 -0.029397111 0.08274929 -0.009434111
000140 8c 02 02 3d 92 70 ac bd 80 73 c4 bb ee b0 b0 bd
       0.03174071 -0.084199086 -0.005995214 -0.08627497
000150 10 47 e8 bc c4 77 b1 bc 50 bb 23 bd 80 d9 e3 bb
       -0.028354198 -0.021663554 -0.039973557 -0.0069534183
000160 5b 73 54 bd 60 83 5c 3c e8 a9 b3 bd c0 b2 f7 3c
       -0.051867824 0.013459057 -0.087726414 0.030236602
000170 a8 4d a8 3d be 6b 9b 3d be db 35 bd bf 95 8d bd
       0.08217937 0.075889096 -0.044399016 -0.069133274
000180 60 31 1a 3d 40 43 38 bc 66 9e 8c bd 98 63 12 3d
       0.037644744 -0.011246502 -0.068661496 0.03573951
000190 10 3d 07 3d 74 dc f7 3c 78 28 67 bd 4e 35 9f 3d
       0.033017218 0.030256487 -0.05643508 0.07773839
0001a0 40 2c 8d bd 14 2c 29 3d d8 bd 2f 3c 53 72 56 bd
       -0.06893206 0.0413018 0.010726415 -0.05235512
0001b0 e4 5f b9 3c 51 7b 68 bd 0e 7e 95 bd c6 27 f9 bc
       0.022628732 -0.05675823 -0.07299434 -0.030414473
0001c0 20 52 26 3c 0b c5 18 bd b0 d3 fc bc a0 fb 0b 3b
       0.010151416 -0.03729729 -0.03086266 0.0021359697
0001d0 f0 27 50 3d fa 03 9d bd db 2e 81 bd b4 7e 84 3c
       0.050819337 -0.07666774 -0.06307765 0.016173698
0001e0 28 dc 7a 3d f8 c6 64 bd 4e 0d 25 bd 20 bf 8f bd
       0.061245114 -0.055853814 -0.04029589 -0.07018876
0001f0 e4 99 82 3d 5c 7c 80 bd 40 8c 0d bd 9c 4f 6e 3d
       0.063770086 -0.0627372 -0.03455758 0.05818139
000200 2c b6 76 bd 0c 56 36 bd 1c 87 f3 3c cb cb 5d bd
       -0.060232326 -0.044515654 0.029727511 -0.05414943
000210 75 d0 2a bd 3c 76 1b 3d 5c 31 b6 3c 30 66 37 bc
       -0.041702706 0.037954554 0.022240333 -0.011193797
000220 d3 99 3c bd a6 6e 02 bd 7f ef 7f bd 6c 22 88 3c
       -0.046045136 -0.031843804 -0.06248426 0.016617976
000230 88 24 b6 bc 34 64 35 bd 8b 61 8c bd 5a aa a8 3d
       -0.022234216 -0.044285014 -0.06854542 0.08235617
000240 08 26 84 bc 1c 2d e3 bc 44 ee bf 3c 6d a8 46 bd
       -0.016131416 -0.02773147 0.023429044 -0.048500467
000250 d8 fb b4 3d f8 4a 4e 3d 8e 3b b4 bd bc 21 7b bd
       0.08837098 0.050364465 -0.08800422 -0.06131147
000260 c8 b9 5c 3d 74 78 32 3d 00 ed cb 3a 10 a2 a5 bc
       0.053888112 0.043571904 0.0015558302 -0.020218879
000270 f2 17 35 bd e0 18 5d bc c4 7f a8 bd 84 47 10 3d
       -0.04421229 -0.0134947 -0.08227494 0.035224453
000280 c8 61 0d bc 72 48 a2 3d 00 8f cc 3a 00 4b ef 3b
       -0.00862927 0.07923974 0.0015606582 0.007302642
000290 b8 8b 7f bc 06 48 48 bd 22 fb 90 3d af 14 83 bd
       -0.015597276 -0.048896812 0.0707915 -0.064004295
0002a0 d6 33 ba 3d ce 53 97 3d 0a 61 ab 3d 70 bd 01 3c
       0.09091918 0.07389031 0.08368118 0.007918701
0002b0 83 8f aa bd 79 da 57 bd f4 00 da 3c 38 ff 50 bc
       -0.08328154 -0.052698586 0.026611783 -0.012756161
0002c0 30 d8 36 3c e8 28 a7 3c e4 3e 5b 3d 3b 93 a3 bd
       0.011159942 0.020405248 0.053526774 -0.07987066
0002d0 0f b5 11 bd ca 24 9e 3d 60 76 ec 3b 9c 4e 60 3d
       -0.03557306 0.07721861 0.00721626 0.054762468
0002e0 ce 1d 9d bd 59 91 88 bd ac 00 8d 3c 58 66 51 bc
       -0.076717004 -0.06668348 0.017212234 -0.012780748
0002f0 e5 fd 34 bd 5d fa b8 bd 08 be 55 bc d6 57 b7 3d
       -0.044187445 -0.09032128 -0.013045795 0.089523
000300 36 86 4f bd 80 26 69 3a c5 40 7b bd 94 a4 4b 3d
       -0.050665103 0.00088939816 -0.061341066 0.0497175
000310 ac d1 a3 3d 80 fd 32 3b c0 6f 0e 3d d4 7a 6e 3d
       0.07998976 0.0027311742 0.03477454 0.058222607
000320 c2 ef 43 bd f8 19 10 bc fc 69 9c bc 88 24 5d 3d
       -0.047836073 -0.008795254 -0.019093506 0.053989917
000330 c5 dc 6a bd 6a f2 74 bd 3e 4f 98 3d 4e ab a1 3d
       -0.05733945 -0.059801497 0.07436989 0.07894002
000340 80 f6 a4 bb 17 01 27 bd 09 22 3a bd f0 2d 86 3d
       -0.005034268 -0.040772524 -0.045442615 0.06551731
000350 b4 e9 8b 3c a4 eb 22 3d 6b f6 57 bd 22 26 29 bd
       0.017079212 0.039775506 -0.052725237 -0.041296132
000360 04 52 36 3d 88 c2 9c 3d 94 1c 7f 3d 30 f2 47 bc
       0.04451181 0.076542914 0.062283114 -0.012203738
000370 00 28 5a b9 6a be ec bc 40 f4 71 bb 38 e2 dc bc
       -0.00020805001 -0.02889939 -0.0036919266 -0.026963338
000380 d5 80 7f bd 7e 43 89 3d e9 92 5d bd 20 a4 46 bc
       -0.062378723 0.06702326 -0.054095183 -0.012124091
000390 80 41 a4 3a d4 cc a0 3d ab f2 5c bd 5c ad 76 3d
       0.0012531728 0.07851568 -0.053942364 0.060223922
0003a0 dd 39 30 bd c0 59 04 bb 38 3c 5e 3c 68 c1 30 3d
       -0.043023933 -0.0020195097 0.013564162 0.043153197
0003b0 60 81 7a bb 74 10 80 bd b8 87 67 3d 1e b0 97 3d
       -0.0038224086 -0.06253138 0.056525916 0.074066386
0003c0 cc 80 e6 3c 2c fa 36 3d 77 66 56 bd c0 50 c1 3b
       0.028137587 0.044672176 -0.05234381 0.0058995187
0003d0 e4 55 79 3d a0 39 fc 3b f8 12 59 3c 98 05 d9 bc
       0.060872927 0.007697299 0.013249151 -0.026491925
0003e0 2c 22 9b 3d a4 88 1d 3d 94 5e 8d 3c 6c e3 e2 3c
       0.07574877 0.03846039 0.017257012 0.027696334
0003f0 0e 12 b7 3d fd eb b9 bd 88 01 be 3c 61 d5 ab bd
       0.089389905 -0.09078214 0.02319409 -0.08390308

LeNet_layers.9.bias f4 [84]
000000 d0 2f 04 3c c0 13 05 bb 86 b2 af 3d 34 10 ed bc
       0.00806804 -0.0020305961 0.085789725 -0.02893839
000010 6f 5a 9c bd c6 a2 ae bd b5 de a1 bd 5c 24 a2 3c
       -0.07634436 -0.0852714 -0.07903806 0.019792728
000020 38 6e ca 3c ee 6f 65 bd b9 b1 0d bd d4 84 8b 3c
       0.02471076 -0.056014948 -0.034593318 0.01703111
000030 27 d6 04 bd b4 dc c1 bc 18 a9 64 bd 77 70 61 bd
       -0.032430794 -0.02366481 -0.055825323 -0.055038895
000040 b1 98 8c bd 80 2e dc 3b 70 44 f7 3c 8c 90 a5 3c
       -0.06865061 0.0067194104 0.030184 0.020210527
000050 58 ee 51 bd ac 6d a5 bc 80 3f b9 bd e2 0d 9d bd
       -0.051252693 -0.020193897 -0.09045315 -0.076686636
000060 d8 92 25 bd c9 a2 a3 bd dc 70 20 3d 30 80 64 3c
       -0.040423244 -0.07990033 0.03917013 0.013946578
000070 f1 e7 0e bd b8 94 ea 3c 19 88 a7 bd 82 38 7e bd
       -0.034889165 0.028635368 -0.081802554 -0.06206561
000080 ea 59 84 3d 34 39 88 3d 7c 00 e4 bc ae ca f9 bc
       0.06462462 0.06651536 -0.027832262 -0.030492153
000090 28 e7 a8 3d e7 b5 81 bd bc b2 6b 3d b2 33 35 bd
       0.082472146 -0.06333523 0.0575435 -0.044238754
0000a0 fa f1 3e bd 48 3f 7c bd 2f fd 9e bd dc 3d 32 3d
       -0.046617486 -0.061583787 -0.07763135 0.043516025
0000b0 20 52 f5 3c 40 80 e7 3a e4 dc 70 3d 36 06 96 3d
       0.029946387 0.0017662123 0.058804408 0.073254034
0000c0 e8 2a d1 bc 56 05 b8 3d ac 2d 29 3d a0 16 7b bc
       -0.025533155 0.08985393 0.04130332 -0.015325218
0000d0 5c 23 85 bd f4 99 82 3d 00 87 4d bc b3 6b 51 bd
       -0.06500885 0.063770205 -0.012544394 -0.0511281
0000e0 00 6d 94 ba f2 7c ad 3d 5c 3f 4b 3d ac f9 a8 bc
       -0.0011323988 0.08471097 0.04962097 -0.020626865
0000f0 48 41 27 3d 39 9a b5 bd d0 5e 92 bd 8a 3a 07 3d
       0.04083374 -0.08867306 -0.0714699 0.03301481
000100 10 07 f1 3c f4 ba 8a 3c e0 eb e4 bc 2f d8 4a bd
       0.029422313 0.01693485 -0.027944505 -0.049522575
000110 fc ff 1a 3d 68 74 9d 3d 34 a9 88 bc 2c ba 1a 3d
       0.037841782 0.07688218 -0.016682245 0.037775204
000120 04 eb 89 3c 88 20 40 bc 60 97 7b 3b a9 61 47 bd
       0.016835697 -0.011726506 0.0038389787 -0.04867712
000130 f0 70 67 3d c0 8b c1 3c 4c 3e 76 3d 63 4a 53 bd
       0.05650419 0.023626208 0.060118005 -0.051584613
000140 d4 01 9c bd 9f 66 82 bd dc b1 94 bd 44 d0 32 3d
       -0.07617536 -0.0636723 -0.072604865 0.04365565

LeNet_layers.11.weight f4 [10, 84]
000000 6b 3e a6 3d 36 94 b7 bd ac 73 0f bd 8f 4d 9b 3d
       0.08117374 -0.08963816 -0.035022423 0.075831525
000010 04 8d eb 3c 44 fc a3 3c 55 17 ba 3d 8e 14 29 3d
       0.028753765 0.02001775 0.090864815 0.041279368
000020 aa 03 80 bd 20 0f b0 bd 74 2d 60 bd c4 20 8c bd
       -0.06250699 -0.08596635 -0.054730847 -0.06842187
000030 35 2e a3 bd 44 a1 8d 3c 6d 37 c6 3d c0 54 7a 3c
       -0.07967798 0.017288812 0.096785404 0.015278995
000040 f1 5d 85 bd 01 a2 95 3d 67 08 8d bd 68 c3 13 bd
       -0.065120585 0.073062904 -0.06886368 -0.036075026
000050 84 e1 ac 3c c4 42 90 bc e7 fe b6 bd 9f 62 c1 3d
       0.021103628 -0.017609961 -0.089353375 0.094426386
000060 ee f6 33 3d 32 ca 9c bd 00 a7 94 b9 e2 4c b8 bd
       0.043936662 -0.07655753 -0.00028353184 -0.08999039
000070 0c 6c a1 bd 8a 5c 43 bd e3 a3 b8 3d f8 af 02 bc
       -0.078819364 -0.047695674 0.09015634 -0.0079765245
000080 78 d5 0a 3c 1c 5b 9b bd 43 c3 ac 3d e4 8c 89 bc
       0.0084737465 -0.07585737 0.08435681 -0.016790815
000090 75 bc cc 3d cd 7d d7 3d 7f 9d cd bd 1c b6 94 bd
       0.09996883 0.105220415 -0.100398056 -0.07261297
0000a0 c4 9e 86 bc a6 9c 8b bd c0 21 f0 3a 7e bf 25 3d
       -0.016433127 -0.06816988 0.0018320605 0.040465824
0000b0 74 16 90 3c f4 16 c8 3c d2 e2 05 3d 12 53 10 bd
       0.017588831 0.024425007 0.032687016 -0.035235472
0000c0 5f cf c4 3d 40 59 f7 bb bb 34 9e bd 00 eb 48 bb
       0.096098654 -0.007548481 -0.07724901 -0.003065765
0000d0 94 86 8a bd c0 07 9a bb df 7a 6f bd 26 60 46 3d
       -0.0676395 -0.004700631 -0.05846679 0.048431538
0000e0 48 72 58 3c dd 7d 42 bd c4 fd 85 3c 9a d1 08 3d
       0.0132108405 -0.047483314 0.016356356 0.033403017
0000f0 dd 2b c6 bd 70 e8 c2 bd 27 cb ca 3d 6e 00 12 bd
       -0.09676335 -0.0951699 0.099020295 -0.03564494
000100 b4 88 d5 bc 1a 07 35 bd 47 f1 97 3d 6a 16 7c 3d
       -0.026066162 -0.044196226 0.07419067 0.061544813
000110 8d ad bf 3d 2a ce a5 bd 9b 46 b8 3d c3 50 cc 3d
       0.09359274 -0.08095963 0.08997842 0.099763416
000120 e7 ac c4 3d 13 0a a8 3d 07 c4 a6 3d 40 29 bb bc
       0.09603291 0.082050465 0.08142858 -0.022846818
000130 dc 9b bb 3c 78 e7 c4 bd aa 74 3d 3d 91 b3 67 bd
       0.022901468 -0.09614462 0.046253838 -0.056567732
000140 9d df b9 3d a8 4b 86 bc 60 77 39 bd 00 50 bd bd
       0.09075854 -0.016393498 -0.04527986 -0.092437744
000150 30 c8 b9 bc 18 18 f3 bc b1 a2 ba 3d 67 f1 9d 3d
       -0.022678465 -0.029674575 0.09113062 0.077120595
000160 16 0a a3 bd 15 93 90 3d 93 4a 9a 3d ec 3b 9d bd
       -0.07960908 0.07059304 0.07533755 -0.07677445
000170 74 46 86 bc 48 11 78 3c 34 26 dd bd 91 49 97 3d
       -0.016391017 0.015140839 -0.10798302 0.073870786
000180 70 8e e7 bb 00 7c a5 bc 33 9f c1 bd e5 18 80 3d
       -0.0070665404 -0.02020073 -0.09454193 0.06254748
000190 60 a8 31 3c 88 bc 50 3c c9 b4 6a bd 7c ed 08 bd
       0.010843366 0.012740262 -0.057301316 -0.033429608
0001a0 d7 84 da 3d a2 9c 1b bd 59 29 d8 3d 44 7b 96 bd
       0.106698684 -0.037991174 0.105547614 -0.0734773
0001b0 6f 1d 9b 3d a5 1b d1 3d 01 b8 8b 3d 8e e8 7e 3d
       0.075739734 0.10210351 0.06822205 0.0622335
0001c0 6e 0d 39 bd 7c dc 25 bd 98 40 a3 bc a0 d5 2b 3c
       -0.045178823 -0.040493473 -0.019928262 0.010487944
0001d0 10 d6 3b bc 6a f6 4f 3d c1 0c 9c bd 0b 73 a1 bd
       -0.011464611 0.05077211 -0.0761962 -0.07883271
0001e0 2c 8d 99 bc 3d 0c c5 3d c2 f2 b6 bd 28 57 b5 bd
       -0.018744074 0.09621475 -0.08933021 -0.08854514
0001f0 fb cf 9a 3d 2d 14 c8 3d 9a 6f 46 3d 6c d9 b7 bc
       0.075592004 0.09769473 0.048446275 -0.022442542
000200 b1 c4 82 3d c0 44 b8 bd f0 11 dd bd fa 5d 27 3d
       0.06385172 -0.08997488 -0.10794437 0.040861107
000210 d3 3d bf bd e6 8b 49 3d 99 a2 d6 3d 3c 96 e0 3c
       -0.09337964 0.049205683 0.10480232 0.027415387
000220 7f c0 6f bd 50 36 a5 bd e6 e6 1c 3d ae 3a 15 3d
       -0.058533188 -0.08067 0.03830614 0.036432914
000230 52 fc c4 bd 7a bb 06 3d 76 14 37 bd 5c 76 c2 3c
       -0.09618439 0.032893635 -0.044697247 0.023738079
000240 7d 16 a4 3d ff 03 80 3d 7a 3b d8 bd e7 ca 86 3d
       0.08012102 0.06250762 -0.10558219 0.06581669
000250 10 db 3b bd 96 15 ae bd 28 8c bb bd 82 55 26 3d
       -0.04586321 -0.08500211 -0.09157592 0.04060889
000260 66 c8 39 bd 96 f4 7d 3d 53 2c bf 3d 88 03 98 bc
       -0.04535713 0.062000833 0.09334626 -0.018556371
000270 38 80 8a bd 47 70 db 3d f0 38 86 3b 25 9c 8c 3d
       -0.06762737 0.107147746 0.004096143 0.0686572
000280 25 3e 42 bd a3 6a de 3d 7a 21 17 3d 36 c7 61 3d
       -0.047422547 0.10860183 0.03689716 0.055121623
000290 e4 7c d7 3c 51 3f 9b bd bc 31 a7 3c a3 ce 45 bd
       0.02630467 -0.07580436 0.020409457 -0.048292767
0002a0 ff ee 9f bd 1d c2 8e 3d a7 74 ca 3d 79 57 b2 3d
       -0.07809257 0.06970618 0.09885531 0.0870809
0002b0 33 99 91 bd a8 43 86 bd 28 d3 29 3c 34 b8 ee 3c
       -0.071092986 -0.06555873 0.010365285 0.02914057
0002c0 80 91 69 bb 37 e3 c2 3d 6f d9 81 3d 6e 0e 41 3d
       -0.0035639703 0.09515994 0.063403 0.0471329
0002d0 f8 bf 3b bc 00 8c aa bc 3f 0b a1 3d e3 ed a0 3d
       -0.011459343 -0.02081871 0.07863473 0.07857873
0002e0 80 a0 ae 3a 05 91 d7 bd 37 53 b1 3d 59 cc 99 3d
       0.0013322979 -0.10525707 0.0865845 0.07509679
0002f0 20 96 b7 bb 48 3b cc bc a0 ca 14 bb 1c 62 4a bd
       -0.005602613 -0.024930611 -0.0022703782 -0.04940997
000300 42 99 9c bd 25 50 95 bd f3 a2 45 bd 7a 13 77 3d
       -0.07646419 -0.07290677 -0.048251104 0.06032131
000310 c8 0c 26 bd 53 cc 8b 3d 88 f3 72 bc b8 c2 df bc
       -0.040539533 0.06826081 -0.01482857 -0.027314529
000320 80 c6 22 bc 18 b0 13 bc af 12 c0 bd 8a 1d 7e 3d
       -0.009935021 -0.009014152 -0.093785636 0.06203989
000330 8c 17 bc 3c c8 e4 b2 bd ff 4f df 3d 4c 89 e6 3c
       0.022960447 -0.08735043 0.1090393 0.02814164
000340 e4 d7 d6 bd de 07 50 3d 4e 44 2d bd d6 92 0b 3d
       -0.104903966 0.050788753 -0.04230147 0.03407558
000350 2b 30 95 3d c0 54 e0 bb 85 bb c0 3d 0f 5a ba bd
       0.07284578 -0.0068460405 0.094107665 -0.090992086
000360 2a 6a 42 3d 2e 17 1c 3d 50 f5 a7 bb ef 47 b1 bd
       0.047464527 0.038108043 -0.005125679 -0.08656298
000370 e8 bf 2a bd 3b 36 82 3d 6c bf ab bd ac 2a e9 3c
       -0.041686922 0.06358 -0.0838612 0.02846273
000380 80 b4 1f bd 10 78 8b bb 7c f1 90 bd 7a e4 c1 bd
       -0.038990498 -0.004256256 -0.070773095 -0.094674066
000390 7b 8d 9e 3d 5c b0 e6 3c 28 f2 1c bc 8d 3e 88 bd
       0.07741829 0.028160267 -0.009579219 -0.066525556
0003a0 53 34 5c bd 40 1b b8 ba d0 a9 86 bd ef 99 99 3d
       -0.053760838 -0.0014046207 -0.06575358 0.07500064
0003b0 d1 11 dc 3d a2 32 06 3d 91 5c db 3d c1 46 9b 3d
       0.10745586 0.03276313 0.10711015 0.075818546
0003c0 3d 59 9a bd d0 4f 45 bc c8 2d 3c bd 4a f6 32 3d
       -0.07536552 -0.012042955 -0.045942098 0.04369191
0003d0 e9 5b 70 bd ca 27 40 3d ca 68 42 3d ce 24 88 bd
       -0.058681402 0.046912946 0.047463216 -0.06647645
0003e0 1e cf dc bd 42 30 02 3d 1c 74 f8 3c c4 02 8e bd
       -0.10781692 0.031784303 0.030328803 -0.06934121
0003f0 38 4e 24 bd ec 6e 10 bd 70 49 53 bc 3c 23 c4 bd
       -0.040113658 -0.035262033 -0.012895927 -0.09577033

LeNet_layers.11.bias f4 [10]
000000 60 e6 cc 3b 18 47 5b bc b4 bc 6b bd c1 5e 6d bd
       0.006253049 -0.013383649 -0.05755301 -0.057951692
000010 16 cf 3e 3d cc 6c e6 3c d0 28 08 bc a0 2a f8 bb
       0.04658421 0.02812805 -0.008310512 -0.0075734407
000020 b0 2c eb 3b 38 99 86 bd
       0.007176958 -0.06572193
